model_cnn.pth (torch, 435171 bytes, 8 tensors)

conv1.weight f4 [6, 3, 5, 5]
00000000: e186 cbbd 58ee 6bbd af33 5cbe 46da f1bc
00000010: cada 66bd c81e 0bbe c9ae 4bbe 9da2 75be
00000020: 78cf f8bd b4cb 573d bba0 7bbd 9b2f 22bc
00000030: cef7 28bc 209c 513c 85a1 f43d 65d3 11bd
00000040: 2360 483d 4fe6 1dbe c603 35bd daf0 823d
00000050: 7edf aa3d e830 cdbd 4b46 ea3b 3715 8d3d
00000060: 14dd 043e f93d a1bd 0603 88bd dcb9 f1bd
00000070: 4fcb 9f3d 1703 e5bc ced4 63be 17c2 a0be
00000080: aeee 26be f136 76be 870b 03be d3d4 92bc
00000090: 380a 03bd 7cb6 1fbe 0626 5bbd 5f8f 13bd
000000a0: 9406 bebb e092 9ebd 5f6f e7bc cde9 f2bc
000000b0: da9e 1c3e 3b9a bd3d 7daf 39bd a3f8 2b3e
000000c0: 15f4 833d 8da5 523e 0f95 3b3e a1a4 f0bc
000000d0: 2e99 c53c a8ea 803d 97cc da3d 6ec6 d5bc
000000e0: 3b0e 85bd f9dd 96bd 663f 05be 0341 16be
000000f0: 4377 d9bd 8126 2ebd 0ef3 93bd bc9a 81bd
00000100: dbd0 85bd 49be 113a 5325 e6bd 3fea 5bbd
00000110: 2dfd 31be 3d6f 7cbd c2d4 94bc 77d0 1dbe
00000120: 8bcf da3d 3c72 503e f994 133e 1bfa b63d
00000130: d715 4f3e 4af9 063e 0277 863e 8bb7 43bb
00000140: e617 303d f236 003b 6cec 3b3c 6c82 f93d
00000150: 462d 023d 3647 8cbd 733e 74be 0173 7cbe
00000160: 8492 64be 103d 113e 2e59 f1bd c3b4 aebd
00000170: 0abe dc3d 0cb5 0ebc db07 93bc edc9 f6bc
00000180: f6e1 be3d 9ce6 cd3d 1017 0e3d 154f 12be
00000190: d4f2 f8bc 7351 053d c8bc 9aba ff76 2c3e
000001a0: 80d5 08bd 5e43 0abe 7844 0bbb 6835 17be
000001b0: cc43 07be 991f 0cbd 69f1 7f3d 9ef4 8fbe
000001c0: d49d 69be 0742 5dbe 101a 1dbe c0c0 ec3d
000001d0: bafe 923d e5bb fe3d 1052 6c3d b81b 083d
000001e0: b3dd 1f3c 0171 193e edb9 c03d c448 8dbb
000001f0: 9676 53bd d003 d6bd 538d 263e aed2 a83d
00000200: bb2d ec3d 1c2b d7bd 0b25 4ebd fd81 ebbc
00000210: 3803 b8bd c2be 92bd 5bb5 053d c641 d2bd
00000220: c800 acbd 5ffa 83be 836b 0cbe 9aa0 823d
00000230: 3170 063e f586 8a3d 749b 133e de36 093e
00000240: 37a3 9abb f7c6 2fbc 5999 2f3d 7640 a83b
00000250: fd51 db39 eadb bd3d 58ba 163d 5c03 8abd
00000260: 7f95 49bd 91d9 823d f612 543d 1b0c 743c
00000270: 2a14 89be 9c54 a4bc 7ace 113e 57f7 e53d
00000280: 619d 5f3c fe6f 8cbe b83d 15bd ccac 613e
00000290: 6ce5 36bd 4e5e c43d 3048 54be d58c 2fbd
000002a0: 50fb 103e 150c 8a3c 3841 48bc a445 693d
000002b0: b9d8 09bd e50c 1c3d ccb1 66bd 81cc a33b
000002c0: ede3 3dbe 81b7 8c3d 1bdb 513d 559c 55bd
000002d0: c43e ca3d 74cb 75be cd9e e03c 1695 d83d
000002e0: 6f90 b7bb 48d6 f43d 18ab aabe abd5 d53b
000002f0: 22b9 d23d d09e 183e 0a25 90bd 96a3 d7bd
00000300: 73a3 4c3d 9b0c 2c3e 6a58 693d aa7d 31bd
00000310: bda1 1dbe 7222 483d 3a3d 82bb ece4 913d
00000320: 921f 8c3c 38ff 9ebd 21e3 32bd c817 103e
00000330: 6ece c93c d02f bd3a 507f 51be 14bd f63c
00000340: 489e 7a3e ad56 90bc 64af a23c 2c50 a5be
00000350: d87b 0e3a 5608 813e f222 823d aa79 1c3c
00000360: baaf 8cbe dd45 00bc 0557 b53d 9b8c 69bc
00000370: 57e7 bd3d dcc1 7dbd 59c2 31bc 141d 6d3c
00000380: 12ca b93d 36cc 9cbe 5059 e3bd 7a6c 4bbe
00000390: a63a b6be 071a 4cbd 8f56 bbbe 74e2 21be
000003a0: cd9a 98be 28f6 1dbe d62b e83b 8db7 a33d
000003b0: 02c8 e23b aef3 e2bd 7dc8 a83d 050a 1cbc
000003c0: 81a2 1d3e 4a97 c83d 3640 a53d e994 c73d
000003d0: 96f5 c63c a437 0dba eca4 243e 1a38 323e
000003e0: ca55 413e aef2 4a3d 5556 023e b637 993e
000003f0: 499e 843e 1989 41bd 7d3c 8f3e 81a6 70bd
-0.099378355 -0.05760035 -0.2150409 -0.029523026 -0.056360997 -0.13585961 -0.19890894 -0.23987813
-0.121489465 0.0526845 -0.06143258 -0.009899045 -0.0103129875 0.012793571 0.1194487 -0.035601992
0.048919808 -0.15419887 -0.04419305 0.06393595 0.08343409 -0.10019094 0.007149493 0.06888812
0.1297496 -0.078731485 -0.06641202 -0.11803028 0.0780245 -0.027955575 -0.22249147 -0.3139808
-0.16301987 -0.24044396 -0.12797366 -0.017923748 -0.031992167 -0.15596956 -0.05350306 -0.0360254
-0.005799124 -0.07742858 -0.028251348 -0.0296525 0.15294972 0.09257933 -0.045333374 0.16794066
0.06443039 0.20570965 0.1831858 -0.029375376 0.024120893 0.06294757 0.10683554 -0.026095595
-0.06496855 -0.07366557 -0.13012466 -0.14673238 -0.106184505 -0.04251719 -0.072240934 -0.06328341
-0.06533977 0.0005559666 -0.11237588 -0.05369019 -0.17381735 -0.061629523 -0.018167857 -0.15411554
0.10684117 0.20356077 0.14412297 0.089344226 0.20223175 0.13181034 0.2626267 -0.0029864039
0.04299154 0.0019564 0.011469942 0.12183079 0.031781457 -0.0684952 -0.23851947 -0.24653246
-0.22321516 0.1418345 -0.11784588 -0.08530571 0.107784346 -0.008710157 -0.017948082 -0.030125583
0.093204424 0.10053751 0.034689963 -0.1428798 -0.030389227 0.03254838 -0.0011805529 0.16842268
-0.033406734 -0.13502261 -0.0021250527 -0.14766467 -0.13209456 -0.03420982 0.062486086 -0.28116316
-0.22814113 -0.21607219 -0.15341973 0.11560202 0.071774915 0.12438182 0.05769545 0.03322956
0.009757447 0.14984514 0.094104625 -0.004311653 -0.051626764 -0.10449946 0.16264848 0.08243309
0.1153216 -0.10506269 -0.050328296 -0.028748507 -0.08984989 -0.071652904 0.032643657 -0.102664515
-0.083985865 -0.25776955 -0.13712887 0.063782886 0.13128735 0.06764022 0.1441477 0.13399836
-0.0047191638 -0.010728589 0.042870853 0.0051346375 0.0004183202 0.09270461 0.036798805 -0.06738922
-0.049214836 0.06389154 0.051775895 0.014895464 -0.26773196 -0.020059876 0.14238921 0.11228817
0.013648362 -0.27429193 -0.036435813 0.22038573 -0.044652387 0.095883 -0.20730662 -0.042858917
0.14158368 0.016851464 -0.012222581 0.05695118 -0.03365395 0.038098235 -0.056321904 0.004998744
-0.18543978 0.06870938 0.051234346 -0.052151043 0.09875253 -0.24003392 0.027419472 0.10575311
-0.0056019346 0.119549334 -0.3333366 0.0065257153 0.102892175 0.14904332 -0.07038315 -0.105292484
0.049960565 0.16801684 0.056969084 -0.043332733 -0.1539373 0.048860975 -0.003974584 0.071237415
0.017104898 -0.07763523 -0.04367364 0.14071572 0.024634566 0.0014433805 -0.20458722 0.030119456
0.24474442 -0.017619455 0.019859023 -0.3228773 0.0005435324 0.25201672 0.063543215 0.009550491
-0.2747782 -0.007829157 0.08854488 -0.014254714 0.0927264 -0.061952457 -0.010849559 0.014472265
0.09071745 -0.3062455 -0.111010194 -0.198656 -0.3559162 -0.04982951 -0.36589476 -0.15809041
-0.29805604 -0.15425932 0.007085304 0.07993994 0.0069208154 -0.110816345 0.08241365 -0.009523873
0.15394022 0.09794481 0.08068888 0.09745199 0.024287026 -0.0005387014 0.16078538 0.17404214
0.18880382 0.049547844 0.12728246 0.29925317 0.25902012 -0.047249887 0.27975836 -0.05875254

conv1.bias f4 [6]
00000000: 1351 903e 5768 9e3d 3a21 943b d93b 9b3c
00000010: 3139 76be 5fa1 453e
0.28186855 0.07734745 0.0045205625 0.018949436 -0.24045254 0.1929984

conv2.weight f4 [16, 6, 5, 5]
00000000: 5234 003d 5e27 94bd 285e 1639 449a 693b
00000010: 0d40 d2bd dcf6 40be 07d3 9dbd 9213 79be
00000020: 2194 a7be 6afd b6be 77c1 95bd acf2 a43e
00000030: d683 5dbc 735f 8f3c d5cf 57bc 79d3 04be
00000040: b288 5e3d be44 04be 1b6a eebd 0c57 283c
00000050: 1d48 eebe f328 023e 0c50 5a3e 3b8a 6a3e
00000060: 881b f43d 7777 993c 0ab4 c8bc d2f8 c23b
00000070: d9be 813d 95a7 e23d a986 363e e26a 2abd
00000080: a889 dc3d 2c50 c33c 1532 793e aca6 833e
00000090: 6e86 0f3e 424e 863d 1ec0 1c3e df6a 693e
000000a0: a996 213e 1004 2f3e 16d6 3f3e d14f fe3d
000000b0: d86b a33d a235 193c 16ef b33e 099a c13e
000000c0: b84c c93d 6516 2bbe 4730 05be b996 f6bd
000000d0: 4402 75bd f35d fbbc 8b6e 94bc 7779 c73c
000000e0: f233 35bd f920 0abe 57b5 0dbe 17a7 3fbe
000000f0: 2037 0d3d 7fa6 1a3d 5918 43be 468d 03bd
00000100: 29a0 c43c 62f7 243d c0cf f23c fcd2 9f3d
00000110: 1568 c53c b4a5 183e c970 26bd 2e52 93bd
00000120: 5752 f13d 527d 763d 8f6d 123d d95d a93d
00000130: 16b1 663d ea03 fd3d 25e7 acbc 8871 d43c
00000140: 0bfa 263d c30f 103e 11af 1b3e f7cd 53bc
00000150: 195f 18bd f3ba 1a3d 9522 583d 436d 883c
00000160: 8321 d7bb aefd fabc a0e8 303d 5f1a ffbd
00000170: d733 16be c0c6 48ba e62e 663d 80b4 22be
00000180: 91ea 6abe f134 05bc e7df e0bc 9cb4 403d
00000190: 57bf f43d 2dd5 153d 68fa 27bc 6e0b 173d
000001a0: 89a3 053a 5e36 423d 977c 82bc f8af ed3c
000001b0: 0cd8 d3bc f5d8 893d 86ce 113d d3c5 973d
000001c0: 7d46 bbbb 0107 493d ae75 0cbe 7a82 653d
000001d0: e02a 803d 82a1 0abd c33a 1dbd 39fd 2cbe
000001e0: eb1b 91bd 94f8 0abe daec 5ebe 9e3d 97bd
000001f0: c0bf 17be ad44 4ebd 6af6 8b3d 1109 30bd
00000200: cf25 613d 384a 64bc 0e40 8ebd e1f5 a0bd
00000210: 0202 933d d2ab de3d 89a5 aa3d 2b46 b3bc
00000220: 4917 6a3d 818b ff3c e9fa b33d 6991 003e
00000230: 188d 03be 84e8 073e 15c9 5a3e c30f 563d
00000240: 4b91 663c 6745 10be 63cd 0fbd 733c 90bc
00000250: 49c0 babd b19d 92bd 0cae 97bb e67a b6bd
00000260: 82b1 5d3c 3f69 6bbd ecc7 ccbd 458c 1d3b
00000270: dda3 6d3c e12a 45bd e8f8 4abd ac28 bd3c
00000280: e024 d2bd bb08 283d cfb8 87bd 8267 babd
00000290: 9d0a 34bc ba5a aebd 2935 523d 1831 cf3c
000002a0: 2781 64bd f37e f8bd 9f30 5b3d 27e2 75bd
000002b0: 0e95 f53c 1338 63bd 5f97 973c 41cb 33bd
000002c0: c804 2f3d 4eac fbbc 6c1c 433c 6c52 8d3b
000002d0: a797 6dbd c879 04be d5d7 29bd 80b1 7bbd
000002e0: 20e9 18bd 9479 c13a 8a75 1cbd 3a28 08be
000002f0: 9b6e cebc 120f 02bd 910f ccbd d4e3 25bb
00000300: 5f08 0dbd b0d3 203c 8bc3 18bd e7b9 c9bd
00000310: b14c 0ebd 857e 0c3d d12e d9bd 4e19 90bd
00000320: ac53 c63c 16f8 4bbd 7790 bdbd 43e4 6b3d
00000330: 2c3a f0bb 21dd 243d 9a84 b33c 9876 9cbd
00000340: eda4 adbd 3618 91bd 6c78 f6bd 0008 dabb
00000350: 4d8b b23c 05d5 b1bd 7413 58bd eab2 163d
00000360: 5f1f d43c 4994 64bc 15c8 07be 786a 22bd
00000370: aa4d 80bd a31b 6ebd 24ce bebd 2be4 f8bd
00000380: 26f5 9fbd da67 b7bd d74e f7bd aaa3 d03c
00000390: a76e 98bd cb70 23bd 8710 36bc 8a81 0cbd
000003a0: 8a2d 7abc e449 7bbd bbff cdbd a70c b1bc
000003b0: 2f24 cbbd a528 32bd b2b7 85bd 4ecc 873c
000003c0: 95c2 c2bd ad07 433c 77de 28bd 166c 143c
000003d0: c459 193d 4249 9ebc a6d8 3b3d 9b01 a3bd
000003e0: 46dc 57bc af78 30ba a939 b8bd 99ca c93c
000003f0: 037f 21bd 97de 26bc d43b 5f3d f053 ea3c
0.031299897 -0.07234071 0.0001434019 0.0035644928 -0.10266123 -0.1884417 -0.07706266 -0.24323872
-0.327302 -0.35740215 -0.07312291 0.32216394 -0.013520202 0.017501568 -0.01317211 -0.12971295
0.05432958 -0.12916848 -0.11641332 0.01027466 -0.46539393 0.12710933 0.21319598 0.22904293
0.11919314 0.018733723 -0.024499912 0.005950072 0.063352294 0.1106712 0.17824806 -0.041605838
0.10768443 0.02384194 0.24335511 0.25713098 0.14016125 0.06557895 0.15307662 0.22794674
0.15780129 0.17091393 0.18734011 0.124175675 0.07979554 0.009351166 0.35143346 0.37812832
0.09829086 -0.16707762 -0.13006698 -0.12040467 -0.059816614 -0.030684447 -0.018119117 0.024349911
-0.044238992 -0.1348914 -0.13838707 -0.18716083 0.0344764 0.03775644 -0.19052257 -0.03211715
0.024002152 0.040274985 0.029640079 0.07803914 0.024097482 0.1490696 -0.040634904 -0.07193409
0.11783283 0.06017811 0.035749014 0.08269853 0.056321226 0.12354262 -0.021106312 0.025933042
0.040765803 0.14068513 0.15203501 -0.012927524 -0.037200067 0.037775945 0.052767355 0.016653663
-0.006565274 -0.030638542 0.0431906 -0.12456202 -0.14668213 -0.00076590106 0.05619707 -0.15889168
-0.22941042 -0.008130298 -0.027450515 0.047047243 0.11950558 0.036580253 -0.010252573 0.036876135
0.0005097916 0.04741513 -0.01592855 0.029014573 -0.025859855 0.067308344 0.035597347 0.07410779
-0.00571519 0.049078945 -0.13716766 0.056032635 0.06258178 -0.033845432 -0.038386118 -0.16893472
-0.07085403 -0.13571388 -0.21770039 -0.073847994 -0.1481924 -0.050358463 0.06834109 -0.042977396
0.054967698 -0.013933711 -0.06945811 -0.07859398 0.07178117 0.10872616 0.083323546 -0.021884045
0.057151113 0.03119445 0.08788092 0.1255547 -0.12846792 0.13272291 0.21365769 0.052261125
0.0140727265 -0.14088975 -0.03510798 -0.01760695 -0.09118707 -0.071589835 -0.0046289023 -0.0891016
0.013531091 -0.057473417 -0.099990696 0.0024039906 0.0145044 -0.048136596 -0.04955378 0.023090683
-0.102609396 0.04102395 -0.06627046 -0.09101774 -0.0109888585 -0.085133985 0.05132023 0.025291964
-0.05578723 -0.12133589 0.053513166 -0.06003013 0.029978301 -0.0554734 0.018504797 -0.04389501
0.04272917 -0.03072181 0.011908632 0.004312804 -0.058005955 -0.12937081 -0.0414656 -0.061448574
-0.0373317 0.0014760965 -0.03819803 -0.13296595 -0.025199225 -0.031752653 -0.099639066 -0.0025312798
-0.03443181 0.009816095 -0.03729586 -0.09849911 -0.034741107 0.034300346 -0.10604633 -0.070360765
0.02420982 -0.04979714 -0.0925607 0.057590734 -0.0073311534 0.040249947 0.021913815 -0.076398075
-0.08478723 -0.07084696 -0.120346874 -0.0066537857 0.02179494 -0.086832084 -0.052752927 0.03679172
0.025893865 -0.01395137 -0.13259919 -0.039652318 -0.06264813 -0.058131825 -0.09316662 -0.121528946
-0.0781043 -0.08955355 -0.120755844 0.025468666 -0.0744298 -0.03990249 -0.011112339 -0.034303226
-0.015269646 -0.061349764 -0.10058542 -0.021612478 -0.09919011 -0.043495793 -0.06529178 0.016576912
-0.0950977 0.0119036855 -0.041227784 0.009058973 0.037439123 -0.019322041 0.04586091 -0.079592906
-0.013175076 -0.00067318504 -0.08995373 0.024632739 -0.03942777 -0.0101849055 0.054500416 0.028604478

conv2.bias f4 [16]
00000000: 1953 20be e6c0 f7bd d2a4 813e 75c3 06be
00000010: cd2c 943d e208 843d 2b7b 1f3e 6286 7fbd
00000020: 7a0f bebd 623f f3bd 6b0f f13e 7f40 803b
00000030: 78fb 2bbe 8217 56be 2447 a83d 820a 45be
-0.15656699 -0.12097339 0.2532106 -0.13160498 0.072351076 0.06447007 0.15574329 -0.062384017
-0.09280296 -0.11877324 0.47082075 0.0039139385 -0.16795146 -0.20907405 0.08216694 -0.1924229

fc1.weight f4 [256, 400]
00000000: 4431 be3d 6e9c d93c 1512 053c 57fb 68bd
00000010: 52b6 273d c18d 3f3d 6e6e 76bd 38b2 aab9
00000020: 6d05 a0bd 09e0 b93c 0cb8 733d 3cd5 c33c
00000030: 833f af3d 06e9 4a3c fbbc 5a3d 6074 c13d
00000040: 274f 863c f654 6dbd 1f20 633d 8875 623d
00000050: b989 bfbc fae1 38be 5f16 e0bd 0380 39be
00000060: e409 82bd 8426 a63a f548 8b3c 579f 34bd
00000070: b68b 723c 1db8 bd3c 20c5 94bd aa94 9a3a
00000080: d4d5 cdbd 4849 cdbc d07b 83bb 6ef5 12bd
00000090: 09bf 6cbd bb2e a7bc 6f40 e73c 271c f93c
000000a0: 3c9d b53c 4afc c53c db98 17be 44e2 9bbd
000000b0: 335b 8ebd 89f9 50bd a990 773c 0611 8bbd
000000c0: 7478 68bd 286e 923c 60c9 5dbe e527 7bbe
000000d0: 7341 a5be 92f6 6bbe b8a1 a4be d990 4dbd
000000e0: 8fe0 63bd 00ce 7ebe db91 b6bd cdc2 f3bd
000000f0: c9c5 2c3e e77c a0bc 6e59 3fbe 368a 5bbc
00000100: 4798 a53b 5b20 733e 5451 7a3d cff7 9ebb
00000110: f908 9b3d 4d06 3c3d 1453 383e 409c 553e
00000120: 7a32 f83d 51ff 103e dd22 0a3e 5bbc d23d
00000130: 32c5 98bd 3523 b83d 73f2 d4bd 7bcd be3d
00000140: 51a5 173e 5edc f6bd 587c d53d c06e 6abd
00000150: 2ee6 013e 1340 9b3e 2c5e 1b3e a741 f63d
00000160: bee2 873d 7715 503e b62a 563e 600a 773e
00000170: 11e2 3e3d 8e5d e83d e7e9 843e 63c7 8f3d
00000180: 1ce9 973d 00bd 79bc 4ea1 0f3e 19a7 913e
00000190: 0009 3a3e 131f 673d c305 973d c4f8 fd3d
000001a0: 1f00 563e ed62 4a3e 1023 563e 1855 163e
000001b0: 2a1b 9c3e e05f 8e3e c1ba ba3d 946a b63d
000001c0: f9a3 8a3e 0f42 6a3e 6143 533d 45b1 ed3c
000001d0: dcc4 203c 6df5 d53d d551 4a3e 52d8 1fbc
000001e0: 2c5e bbbd 22ad 7fbe de9d 34be 0c00 94bd
000001f0: e80f 243c 23ae 3ebe 4f9e 39be f826 15be
00000200: 1c6d b4bd 7384 68be 0c35 c53c ea57 05bd
00000210: 153f ecbd 3dc5 5fbd 68c7 71bd b00d ccbb
00000220: 124b cbbd 8ccc 4ebc 5f39 11ba 5500 c03c
00000230: 6450 a93c a640 d1bc c714 9b3d 8cb8 043e
00000240: f04e 383e 3d62 233e 9acc 093d 4c0d 023e
00000250: 00de 1c3e c0d6 3c3e f6f9 cf3c 0a3a 573e
00000260: dba2 4e3e 68a7 523d 3f06 07bd 707c 193c
00000270: c053 f7bc d48a 43bc aa66 03bd 7a0f 92bd
00000280: d792 e13a 67f3 3bbe 3369 31be d0e9 92bd
00000290: d522 8cbd 590a 15be ca29 c0bd 450b 3dbe
000002a0: ed31 56be eaf9 dcbc 6d20 25be f7d9 45bb
000002b0: b4fb a73d d148 e2bd b8c0 4a3d 6a92 71bd
000002c0: 10c7 63bd a46d 66be 05dc 34be a94e 22be
000002d0: 1b70 f2bb 1684 42bb d94d 82be 5a13 21bd
000002e0: b79c 9fbb a513 453d bdc7 013d 055b 8f3d
000002f0: cbd4 ce3d 5b3f 7d3c b4a4 0bbe e972 47be
00000300: 830f 5ebe 670d 9b3d 1514 5abd cbf4 9dbe
00000310: c33b cdbe ff0d dcbe d53a d1bd 27d2 1ebe
00000320: 9a76 b83b 333e 823c f327 413c 65ab 193d
00000330: 9a70 57bb 3788 8fbc 9aed 1b3b 587c 1b3d
00000340: 6019 04bc 832e f33c 2fd7 e4ba 806e 773c
00000350: 741a a3bc 7bc7 1abd 254d 263d cfad 2ebd
00000360: b359 d0bb 9fce 18bd aa04 ddbc 3a74 0a3c
00000370: 37ed e5bc cd5c b3ba 75f6 233d 7fc3 05bd
00000380: d352 433c 4096 8fbe 2f53 6cbe af2f 433d
00000390: c379 513e ee0d 7d3d aaf9 58be c777 8d3d
000003a0: 7387 7b3e 388f 1b3e 4321 87bd 39fb ccbe
000003b0: 78b8 58bd 2010 20bd 7cce d7ba 8645 82be
000003c0: d277 d0be 72a7 a5bd d5c4 5bbe 38a4 69bd
000003d0: a801 09be eb63 60be e071 73be 2030 16be
000003e0: 27a0 a9bd 2e8d b6bd c51f f4bd 3c9a a9bd
000003f0: 3ac9 35be 7532 2abe cd91 8ebc 7a24 23bd
0.092867404 0.02656385 0.008121987 -0.05688032 0.04094536 0.046766046 -0.060163908 -0.0003255771
-0.07813535 0.022689836 0.059501693 0.023905389 0.08557036 0.012384659 0.053402882 0.09446025
0.016395165 -0.057942353 0.055450555 0.055287868 -0.023381101 -0.18054953 -0.10941767 -0.18115239
-0.06349543 0.0012676273 0.017002562 -0.04409727 0.0148038175 0.023159081 -0.07264161 0.0011793573
-0.1005055 -0.025059357 -0.0040125623 -0.03587859 -0.057799373 -0.020408025 0.028228967 0.030408932
0.022169702 0.024168152 -0.14804403 -0.07611516 -0.069509886 -0.051019225 0.015110173 -0.06790356
-0.056755498 0.017874792 -0.2165885 -0.24526937 -0.32276496 -0.23043278 -0.32154632 -0.050186966
-0.055634078 -0.2488327 -0.089145385 -0.1190239 0.16872324 -0.019590808 -0.18686458 -0.013399651
0.0050535533 0.23742811 0.061112717 -0.0048513184 0.07570071 0.045904446 0.18000442 0.20860386
0.12119003 0.14159895 0.13489862 0.10289832 -0.07459487 0.0899109 -0.10397806 0.09316536
0.14809157 -0.120537505 0.10424107 -0.057234526 0.12685463 0.30322322 0.15172642 0.12024241
0.066350445 0.20320688 0.2091473 0.24125051 0.046602312 0.11345969 0.25959703 0.07020452
0.07417509 -0.015242815 0.14026377 0.28447798 0.18167496 0.05642612 0.07374146 0.12400964
0.20898484 0.197643 0.20911813 0.14680898 0.30489475 0.27807522 0.09117652 0.08907047
0.27078226 0.22876762 0.05157793 0.029015193 0.00981256 0.10447202 0.19757779 -0.009756165
-0.09148821 -0.24968389 -0.17638347 -0.072265714 0.010013558 -0.18621115 -0.18126796 -0.14565647
-0.088098735 -0.22706775 0.024073146 -0.032554545 -0.115354694 -0.05463146 -0.05902806 -0.0062272176
-0.09926428 -0.01262201 -0.000553986 0.023437658 0.020668216 -0.025543522 0.07572322 0.12961024
0.17998862 0.15955444 0.03364239 0.12700385 0.15319061 0.18441296 0.025387745 0.21018234
0.20179312 0.051429182 -0.03296494 0.009368047 -0.030191302 -0.011934955 -0.03208033 -0.07131858
0.0017209899 -0.1835457 -0.17325287 -0.071735024 -0.06842581 -0.14554729 -0.09382971 -0.1846133
-0.20917483 -0.026974637 -0.1612565 -0.0030189732 0.082023054 -0.11049045 0.049500197 -0.058977522
-0.055609763 -0.22502762 -0.17662056 -0.15850319 -0.007398618 -0.002968078 -0.25450018 -0.039325096
-0.004870977 0.048114438 0.031684626 0.069997825 0.10099181 0.015457 -0.13637048 -0.19477428
-0.21685605 0.07570916 -0.053241808 -0.30850825 -0.40084657 -0.42979428 -0.102162994 -0.15509854
0.005629373 0.0158988 0.01178931 0.03751697 -0.0032873512 -0.017521007 0.0023792745 0.03796038
-0.0080626905 0.029685264 -0.0017459149 0.015102029 -0.019910075 -0.037787896 0.040600915 -0.042646226
-0.006358349 -0.037306424 -0.026979763 0.008450562 -0.028067214 -0.0013684273 0.04002996 -0.032657143
0.011921602 -0.2804432 -0.23078607 0.047652896 0.20456605 0.061780863 -0.2118899 0.06907611
0.24563389 0.15191352 -0.06598141 -0.40035418 -0.052910298 -0.039077878 -0.0016464735 -0.25443667
-0.40716416 -0.08088578 -0.21461804 -0.057041377 -0.13379538 -0.21913116 -0.23773909 -0.14666796
-0.082825 -0.08913647 -0.11920122 -0.08281371 -0.17752543 -0.1662081 -0.017403508 -0.03982971

fc1.bias f4 [256]
00000000: d4b7 dcbc 946c da3e daf5 763e 99ef 913e
00000010: 8f87 70bd 2dd9 8c3e 457b a03e af16 d0bc
00000020: 7b97 a4bd 3b4e a63e 525d 65bd cd07 013e
00000030: 8cf2 0e3d 41d4 80bd ed6b 863d 42e7 aa3d
00000040: 1dc3 7b3e 59dd 753c 78e3 b4bc da5d 9dbd
00000050: 5dce 5abd 3faa 7dbd 424e 733e 5597 47be
00000060: 296e 183f 9207 903e f58f 57bd e1bd b4bc
00000070: f966 3d3e 7692 46bc 5a07 b5bc 4607 683e
00000080: e35c 5b3e 1593 dfbc 2f22 d93d 438c c63e
00000090: 3e31 33bc 3b1f debc a670 10be 74f6 803d
000000a0: 9121 b53e c2be 44bd 7c41 9cbd c45f d9bc
000000b0: fb31 b33c daa8 a63e 3ec0 873e 31a7 54bd
000000c0: 0e03 873e 1079 a9bc 4911 533c 99a7 aa3e
000000d0: d02c 5ebd 345e a93e 9d2e 433d 6792 a33e
000000e0: c550 65bd b5d8 bb3e afb2 2e3d 52fc 283e
000000f0: fee5 98bd efe9 1dbc dc59 67be 997c 8fbc
00000100: 9a58 2bbe 839f 993b 0987 f13d 04a0 173e
00000110: aedd 0dbd 28f3 01be 7c24 cf3d 7d04 52bd
00000120: 41a4 fb3e 6ded 5fbe bd07 013e be2d fe3d
00000130: e7b0 063f d8e5 633e e143 743b 45a6 bf3d
00000140: def2 0f3e 5f17 8cbd 014b 333e bbb9 9bbd
00000150: 162a 033c f4c6 013d f4a2 cb3e 615b be3e
00000160: be5a f9bd 9074 81bc f33a db3c cb06 d53e
00000170: a4f4 abbc e34c 63bc 902b 5b3d b0e0 213e
00000180: 6545 7dbc 24c3 3c3e c08e bc3a d217 ca3e
00000190: a7e5 b03e 81d8 653e 0e98 22bd 3f03 34bd
000001a0: 4af7 5c3e 50ed 49bd 577d 9fbb c749 bbbd
000001b0: adb8 733e f738 4abd e703 3a3e 7b47 673e
000001c0: 7c93 9bbd 95a0 253c bbcd 133e 0b2f 4cbd
000001d0: a88b 2c3e 4da8 18bd 1a88 3abd 2b47 55be
000001e0: abc9 b33e 30cf 0f3e da6f 98bc b0fc 90bd
000001f0: 0ad6 efbc 6856 8c3d 0220 e23d 1e02 c1bd
00000200: f563 d53e 6d18 5fbe 288f b43d 671a f5bc
00000210: 917a 0abd 18cc 963c 43c1 8fbc 35a8 913d
00000220: 2a85 153d cd6c b73c b44d 33be ba63 0e3c
00000230: bd52 99be a367 69bc ae69 58bd 0530 d63d
00000240: 15a0 ba3e d434 0bbd 6abe 6bbd 0b81 77bc
00000250: b949 253e 5b09 813d a699 843e e451 843e
00000260: 5ff6 0b3f 3a5f c83e 77f0 04be f4d7 893e
00000270: e0de 6abc f740 643e 6b62 28be 0634 05bd
00000280: 8a9f f43c d311 123e 8064 4dbe 7007 193e
00000290: 2a11 28bb 41c8 febb 71a7 80bd 0ee9 443c
000002a0: 1f93 fcbd 462f 14bd 2c84 b23e 26a5 af3e
000002b0: f430 8b3d 742a 49bc cc03 8e3e 3c5b c83c
000002c0: 8f79 143e b29e a7bd f6ec 2ebd 3155 1f3e
000002d0: 1823 153e e85c 9e3e 549a d13c 9a99 a4bd
000002e0: 6b01 68bd cc3f 21bd 05ee 6ebd 8611 f43e
000002f0: 4dc7 b8be c8ee 6f3e 76d2 a6bb e362 8a3b
00000300: d5e1 ed3e 2a86 d73e d598 a0bc e0e7 92bd
00000310: 2db0 403d 1948 e23b ae7d b03e 4d06 1fbd
00000320: e8b2 533c d170 73bd 0065 9d3d 6a52 bbb9
00000330: 6770 8cbd e335 c43e 88ef d03d 118d 6dbd
00000340: c641 933e dc11 4c3e 3cf1 c2bd b798 ddbd
00000350: 1ddb ce3e 62fb 073e 8922 9a3d 18c6 93be
00000360: e049 b43e a25f 2ebd 336e cebc b787 af3e
00000370: 8962 a53e e39f c13d 08bc debd 5f14 923e
00000380: da0a 593e 0369 f63b a306 94bd c5d2 43bd
00000390: a5bf dd3d fe5e 2fbc 55dc 2dbd 73ba 913c
000003a0: 47e5 f03d 97a3 803b 73ec 003f ebe7 fabd
000003b0: 95ea 42bd fa59 913e afec ebbc f7c2 5ebd
000003c0: 59bc d63e 1999 d33e 2dfa c93e 79a1 6cbd
000003d0: 9cc6 86bd d056 253f 4d42 4b3e f5bc 2d3e
000003e0: b34b d13d 74c7 d4bd b469 aebc b7d9 b13e
000003f0: a347 373d 14ba 793e 4ca2 7abc 25ce e23d
-0.026943125 0.42660964 0.24117222 0.2850311 -0.05872303 0.27509442 0.31344047 -0.025401441
-0.08036705 0.3248156 -0.0559972 0.12600632 0.03489928 -0.06290484 0.06563554 0.0834489
0.24586149 0.015006387 -0.022081122 -0.076839164 -0.05341946 -0.061929937 0.23760322 -0.19491322
0.5954309 0.28130776 -0.052627522 -0.022063198 0.18496312 -0.01211988 -0.022098232 0.22659025
0.21422152 -0.027291814 0.10602223 0.38778886 -0.010937033 -0.027114501 -0.14105472 0.06297007
0.35377172 -0.048033483 -0.07629678 -0.026534922 0.021874418 0.325507 0.26513857 -0.05191726
0.26369518 -0.02068761 0.012882539 0.33330992 -0.054241955 0.33079684 0.047651876 0.31947634
-0.05598523 0.36688772 0.042650875 0.16502503 -0.074657425 -0.009638294 -0.22592872 -0.017515467
-0.16733018 0.0046882047 0.11793334 0.14807135 -0.03463524 -0.12690413 0.10114381 -0.05127381
0.49148753 -0.21867914 0.12600608 0.124110684 0.5261368 0.22255647 0.0037271904 0.09357885
0.1405749 -0.06840395 0.1750908 -0.07603785 0.00800564 0.031683877 0.3977276 0.37179092
-0.12175511 -0.015802652 0.026761508 0.41606745 -0.020990677 -0.013873312 0.05350834 0.15808368
-0.0154584395 0.18433815 0.0014385805 0.39471298 0.3455021 0.22445871 -0.039695792 -0.04394841
0.21578708 -0.049298584 -0.0048672366 -0.09144931 0.23800917 -0.049370732 0.18165551 0.22585861
-0.0759649 0.0101090865 0.14433949 -0.04984955 0.1685015 -0.03726988 -0.045539953 -0.2082793
0.35114798 0.1404388 -0.018608022 -0.07079446 -0.029276866 0.06852418 0.11041261 -0.09424232
0.41677824 -0.21786661 0.088163674 -0.029919816 -0.033808295 0.018407866 -0.017548209 0.07112161
0.03650395 0.022390747 -0.1751011 0.008690769 -0.29945937 -0.0142459 -0.05283516 0.10458378
0.36450258 -0.033985928 -0.05755464 -0.01510645 0.16141404 0.063006125 0.25898474 0.25843728
0.5467281 0.39135152 -0.12982355 0.26922572 -0.014335364 0.22290407 -0.16443793 -0.032520317
0.02986123 0.14264612 -0.20057869 0.14944243 -0.0025644996 -0.007775337 -0.06281937 0.012018455
-0.123327486 -0.036177896 0.34866464 0.34305686 0.067964464 -0.012278188 0.27737272 0.024457566
0.14499496 -0.081845656 -0.042706452 0.15559842 0.14564168 0.30930257 0.025586285 -0.0803711
-0.056641977 -0.039367482 -0.058332462 0.4766962 -0.36089554 0.23430932 -0.005091007 0.004223214
0.4646136 0.42094547 -0.019604126 -0.07173133 0.047043014 0.0069055674 0.34470886 -0.03882437
0.012921073 -0.059433762 0.0768528 -0.00035728823 -0.068573765 0.38322362 0.10201937 -0.05799586
0.2876112 0.19928688 -0.09518668 -0.10820144 0.40401545 0.13279489 0.07526118 -0.2886207
0.35212612 -0.04257167 -0.025199031 0.3428323 0.3230174 0.09454324 -0.10875708 0.28531167
0.21195546 0.0075198426 -0.07227828 -0.047808427 0.10827569 -0.0107038 -0.042446453 0.017789101
0.11762481 0.0039257514 0.5036079 -0.12251266 -0.047586996 0.2838896 -0.028799383 -0.05438515
0.41940573 0.41327742 0.3944868 -0.05777118 -0.065808505 0.6458559 0.1984951 0.16966613
0.102195166 -0.10389605 -0.021290638 0.34736416 0.044746052 0.2438739 -0.015297484 0.11074475

fc2.weight f4 [10, 256]
00000000: edfc 263d e59b ed3c f416 3fbe ac89 283e
00000010: 00cc 9cbc 9bf6 a6bd d3e5 d23d 28e9 e53b
00000020: 3eb1 83bc 1b26 6fbe 90f6 243d 942b 103e
00000030: 776f 40be 7914 e3ba b91e 37be da42 efbc
00000040: db94 44be 9a9f 5f3d e99b 41be bc2c 0f3d
00000050: 08ee 28bd f56e 0d3d cd6b 5abb 0ba7 da3d
00000060: c3e1 66be 189e 1fbe 7cd1 bcbc bd9d 28bd
00000070: 46c3 94be 8888 633a ce6c cf3d 758f 08be
00000080: f8df f6bd 6b17 6dbc 1956 c13a 11aa 9cbd
00000090: 98bf 433c 08d6 1b3d 1144 133e 3238 25bd
000000a0: 60a0 1fbe e89a a2bd c5bd 7cbd c446 073e
000000b0: 96cb 1c3c 5dc6 153e f409 083e 2750 3abd
000000c0: f318 d83c b4f8 04bd c368 ec3c b737 88be
000000d0: 4d6e 8fbe 2016 a2be 08cc 86bd dfbc 20be
000000e0: 2a3c 30bd 8ee3 a6be 1bc8 593e 83d6 7e3c
000000f0: 8b21 3cbd 804a a2bc 6e02 ee3d 3c71 adbc
00000100: 7131 83bc 37ce 6b3d b351 c1bd 4360 50bb
00000110: 75ca a53d f9b3 e83d 3dcf 52be ebf4 8ebd
00000120: 00a3 64be 14ae 0c3e 4cfa a6bd e87e 2fbe
00000130: d227 6ebe 6a14 f03d a839 8bbd 9937 ee3c
00000140: e332 2f3d c567 503e a2a0 3cbe b7b9 17bd
00000150: bb44 84bd d689 6fbd e723 fd3d ebee adbd
00000160: fe3b 503e 013b acbb 17a2 cd3b 5f9d 83be
00000170: 67ef 1cbd c7cd 733c 4ef3 97be a013 ad3d
00000180: 1367 53be 3da0 41be 28fc 33bd e4e2 e93d
00000190: 43ef a6be a71a da3d 9c51 ffbb 5b36 213e
000001a0: 01ec 61be 2113 61bc 565a 3fbd dda2 343e
000001b0: 983d 173e fbc3 16bc 72c3 94be afd9 aebe
000001c0: 066d 583c 786c b7bd bd38 56be 033b 9bbd
000001d0: f4e4 40be 04af 5dbc 7a4d cdbd d60a 363e
000001e0: 5147 72be 0556 953d badd 82bd 3773 d2bd
000001f0: 957c 54bd 732f 05bc 5d96 873d 1a17 46bd
00000200: 7aa2 3abe 277e 023d 7406 943d eeeb 17be
00000210: 932b 683d 51f0 b7bc c60d 95bd 20c6 be3d
00000220: b6c5 4f3d b276 913c 0b2f a93d 4d2a acbc
00000230: 7aa2 2f3d 10a9 9d39 e27d e839 47ba 2fbe
00000240: f3e6 8d3d c973 383d f912 41bd a396 773d
00000250: 587a 92bd 43bb 0e3e 1890 93be c1bf 323d
00000260: 93bd 9ebe e9ba 89bd 5e8e a33c 4e93 d63c
00000270: 4707 1fbd 5e06 353e bfd1 8f3d 1362 ff3c
00000280: 6843 e9bd 00fe 0d3e 013d 64be d516 0d3e
00000290: e604 aa3b 5969 6bbd 9cb7 72bb 6e4c ddbd
000002a0: 1136 1f3e e32e 603d 259c ac3d 1221 9cbe
000002b0: db57 1abd 950c 043d fd51 ca3c 2075 873d
000002c0: 56fc 08be 0baf 88bd ea89 4ebd 2de3 e4bd
000002d0: b092 b8be 8981 813d 4d8f 4fbd 6514 123d
000002e0: e152 efbc 2731 b43c 8c1f c63d 6f12 4b3e
000002f0: 40c2 d93d 1e58 013e e3d2 ce3d 2088 43bd
00000300: 104b db3d 1a51 8fbe 1b55 8d3d e6da c2bc
00000310: 5389 76be 431e 70bd 2e62 443e 567e 8e3d
00000320: 5a12 f8bc 9a40 5ebd 7e79 7e3d cba3 323d
00000330: 4ad7 60bc f7c8 8abe c3d4 933d b937 ed3b
00000340: 9f39 ff3d 749a 373e 40ad f93d 3b1a 323d
00000350: 205b 33be cf9b a83d 2568 273e f369 fe3c
00000360: ee15 4a3d 7060 8c3b 8b1c 45bc dd6b 56be
00000370: 34ce 86be bbb1 be3d f12b 793d a95a fbbd
00000380: e25d b33d 71df 5ebd 8217 343d 691b d53c
00000390: ce2e 15bd d7f7 07bc ad31 dcbc 133a a03c
000003a0: f51d fc3d 42cc 663b 9bed f23d 2dbc 073e
000003b0: e44d 73bd cdf4 c13c bb6f e9bc 86b1 5bbd
000003c0: 9a2f 0bbe d66c 4cbe 840f 833d 00f7 40bc
000003d0: 482c aa3b ddb9 5bbe c304 6e3d d9ae dbbd
000003e0: 909c 9b3d fd6d 643d 2a6f 91bc ba9f c7bd
000003f0: 7f0c 12bd 3011 42be 4b0b a23b 6424 52be
0.040768553 0.029005 -0.186611 0.16458768 -0.019140244 -0.08152505 0.10297742 0.00701632
-0.016075727 -0.2335438 0.040274203 0.14079124 -0.1879252 -0.0017324827 -0.17882814 -0.029206682
-0.19197409 0.054595567 -0.18907131 0.03495477 -0.04124263 0.034529645 -0.0033328414 0.10676392
-0.22547059 -0.15587652 -0.023049109 -0.041166056 -0.29055232 0.00086797075 0.10128175 -0.13335975
-0.120544374 -0.014470915 0.001475039 -0.07649625 0.011947535 0.038045913 0.14381434 -0.040336795
-0.15588522 -0.07939702 -0.061704416 0.13210589 0.009570023 0.14626451 0.13285047 -0.045486595
0.026379084 -0.032463744 0.028858548 -0.26605007 -0.2801384 -0.31657505 -0.065818846 -0.15697049
-0.043026127 -0.32595485 0.2126774 0.015554073 -0.045930427 -0.019810915 0.11621557 -0.021172158
-0.016014786 0.05756971 -0.09439411 -0.0031795658 0.08095256 0.11362452 -0.20586868 -0.06980308
-0.22327805 0.1373828 -0.08153209 -0.17138255 -0.23257378 0.11722644 -0.067981064 0.029079245
0.04277314 0.20352085 -0.18420652 -0.037042346 -0.06458422 -0.05848106 0.123603635 -0.084928356
0.20335385 -0.0052560573 0.006275426 -0.25706002 -0.03831425 0.014880604 -0.29677814 0.08451009
-0.20644788 -0.18908782 -0.043941647 0.11420229 -0.32604417 0.10649615 -0.007791711 0.15743391
-0.22062685 -0.013737471 -0.04671701 0.17640252 0.1476959 -0.009201999 -0.29055363 -0.34150454
0.013209587 -0.08956236 -0.20920081 -0.07579615 -0.18837339 -0.0135304965 -0.10024543 0.17777571
-0.23660018 0.072917975 -0.06389947 -0.10275882 -0.051876623 -0.008128989 0.066204764 -0.048361875
-0.18226042 0.03185859 0.07227793 -0.14836094 0.05668218 -0.022453459 -0.07278018 0.09315133
0.05072566 0.017756794 0.08260926 -0.021016264 0.04287956 0.00030071335 0.00044344278 -0.17160903
0.06928816 0.045032296 -0.047137234 0.060446393 -0.071522415 0.13938622 -0.28820872 0.043639902
-0.3100401 -0.067251034 0.019965347 0.026193287 -0.0388253 0.1767821 0.07022428 0.031174695
-0.1138981 0.13866425 -0.22288896 0.13778241 0.005188572 -0.057473514 -0.003703571 -0.108055934
0.15547968 0.054732215 0.0842822 -0.3049398 -0.03768144 0.03223856 0.024697298 0.06614137
-0.13377509 -0.06674012 -0.050424494 -0.11176143 -0.36049414 0.06323535 -0.05067377 0.03566398
-0.029214324 0.021996094 0.09673986 0.1983125 0.10632753 0.1263127 0.10098817 -0.04773724
0.107076764 -0.27991563 0.06900998 -0.02378602 -0.24075823 -0.05862261 0.19178078 0.069576904
-0.030282188 -0.054260828 0.062127583 0.043613236 -0.013723204 -0.2710645 0.072183155 0.0072393087
0.12462162 0.17930013 0.12191248 0.043482047 -0.1751523 0.08232843 0.16348322 0.03105638
0.04933732 0.004283957 -0.012030731 -0.20939584 -0.26329195 0.09311243 0.06083292 -0.122731514
0.08758141 -0.05441231 0.04396773 0.026014047 -0.03642159 -0.008298836 -0.026879156 0.019558942
0.12310401 0.0035216962 0.11861726 0.13255377 -0.059400454 0.0236763 -0.02849566 -0.053636096
-0.13592377 -0.19963393 0.06399444 -0.011777639 0.005193267 -0.2145762 0.05811001 -0.10726709
0.07598221 0.055768955 -0.017753202 -0.09747262 -0.03565645 -0.18951869 0.004945194 -0.20521694

fc2.bias f4 [10]
00000000: d24a 56be 7f80 5bbe 747b 25be 0ea6 a13e
00000010: cbec a03e 07f4 2abe 7b22 ce3c 1fec 093d
00000020: ca9c 393e 58da 97bd
-0.20926979 -0.21435736 -0.16160375 0.31572002 0.3143066 -0.16694652 0.025162926 0.03367245
0.18126217 -0.07414693
